Model
________________________________________________________________________________
Layer (type)                        Output Shape                    Param #     
================================================================================
dense_4 (Dense)                     (None, 256)                     200960      
________________________________________________________________________________
dropout_3 (Dropout)                 (None, 256)                     0           
________________________________________________________________________________
dense_5 (Dense)                     (None, 128)                     32896       
________________________________________________________________________________
dropout_4 (Dropout)                 (None, 128)                     0           
________________________________________________________________________________
dense_6 (Dense)                     (None, 10)                      1290        
================================================================================
Total params: 235,146
Trainable params: 235,146
Non-trainable params: 0
________________________________________________________________________________


